…
I0914 12:09:33.797346 32618 solver.cpp:87] Creating training net from net file: examples/SR/SR_train_test.prototxt
I0914 12:09:33.797556 32618 net.cpp:294] The NetState phase (0) differed from the phase (1) specified by a rule in layer data
I0914 12:09:33.797672 32618 net.cpp:51] Initializing net from parameters: 
name: "SR"
state {
  phase: TRAIN
  level: 0
  stage: ""
}
layer {
  name: "data"
  type: "HDF5Data"
  top: "data"
  top: "label"
  include {
    phase: TRAIN
  }
  hdf5_data_param {
    source: "examples/SR/train.txt"
    batch_size: 128
  }
}
layer {
  name: "conv1"
  type: "Convolution"
  bottom: "data"
  top: "conv1"
  param {
    lr_mult: 1
  }
  param {
    lr_mult: 0.1
  }
  convolution_param {
    num_output: 64
    pad: 0
    kernel_size: 9
    stride: 1
    weight_filler {
      type: "gaussian"
      std: 0.001
    }
    bias_filler {
      type: "constant"
      value: 0
    }
  }
}
layer {
  name: "relu1"
  type: "ReLU"
  bottom: "conv1"
  top: "conv1"
}
layer {
  name: "conv2"
  type: "Convolution"
  bottom: "conv1"
  top: "conv2"
  param {
    lr_mult: 1
  }
  param {
    lr_mult: 0.1
  }
  convolution_param {
    num_output: 32
    pad: 0
    kernel_size: 1
    stride: 1
    weight_filler {
      type: "gaussian"
      std: 0.001
    }
    bias_filler {
      type: "constant"
      value: 0
    }
  }
}
layer {
  name: "relu2"
  type: "ReLU"
  bottom: "conv2"
  top: "conv2"
}
layer {
  name: "conv3"
  type: "Convolution"
  bottom: "conv2"
  top: "conv3"
  param {
    lr_mult: 0.1
  }
  param {
    lr_mult: 0.1
  }
  convolution_param {
    num_output: 1
    pad: 0
    kernel_size: 5
    stride: 1
    weight_filler {
      type: "gaussian"
      std: 0.001
    }
    bias_filler {
      type: "constant"
      value: 0
    }
  }
}
layer {
  name: "loss"
  type: "EuclideanLoss"
  bottom: "conv3"
  bottom: "label"
  top: "loss"
}
I0914 12:09:33.797739 32618 layer_factory.hpp:77] Creating layer data
I0914 12:09:33.797754 32618 net.cpp:84] Creating Layer data
I0914 12:09:33.797775 32618 net.cpp:380] data -> data
I0914 12:09:33.797791 32618 net.cpp:380] data -> label
I0914 12:09:33.797801 32618 hdf5_data_layer.cpp:80] Loading list of HDF5 filenames from: examples/SR/train.txt
I0914 12:09:33.797822 32618 hdf5_data_layer.cpp:94] Number of HDF5 files: 1
I0914 12:09:33.798616 32618 hdf5.cpp:32] Datatype class: H5T_FLOAT
I0914 12:09:33.924615 32618 net.cpp:122] Setting up data
I0914 12:09:33.924643 32618 net.cpp:129] Top shape: 128 1 33 33 (139392)
I0914 12:09:33.924648 32618 net.cpp:129] Top shape: 128 1 21 21 (56448)
I0914 12:09:33.924650 32618 net.cpp:137] Memory required for data: 783360
I0914 12:09:33.924656 32618 layer_factory.hpp:77] Creating layer conv1
I0914 12:09:33.924677 32618 net.cpp:84] Creating Layer conv1
I0914 12:09:33.924685 32618 net.cpp:406] conv1 <- data
I0914 12:09:33.924700 32618 net.cpp:380] conv1 -> conv1
I0914 12:09:34.124657 32618 net.cpp:122] Setting up conv1
I0914 12:09:34.124686 32618 net.cpp:129] Top shape: 128 64 25 25 (5120000)
I0914 12:09:34.124688 32618 net.cpp:137] Memory required for data: 21263360
I0914 12:09:34.124711 32618 layer_factory.hpp:77] Creating layer relu1
I0914 12:09:34.124721 32618 net.cpp:84] Creating Layer relu1
I0914 12:09:34.124729 32618 net.cpp:406] relu1 <- conv1
I0914 12:09:34.124734 32618 net.cpp:367] relu1 -> conv1 (in-place)
I0914 12:09:34.124884 32618 net.cpp:122] Setting up relu1
I0914 12:09:34.124893 32618 net.cpp:129] Top shape: 128 64 25 25 (5120000)
I0914 12:09:34.124896 32618 net.cpp:137] Memory required for data: 41743360
I0914 12:09:34.124897 32618 layer_factory.hpp:77] Creating layer conv2
I0914 12:09:34.124907 32618 net.cpp:84] Creating Layer conv2
I0914 12:09:34.124930 32618 net.cpp:406] conv2 <- conv1
I0914 12:09:34.124936 32618 net.cpp:380] conv2 -> conv2
I0914 12:09:34.126843 32618 net.cpp:122] Setting up conv2
I0914 12:09:34.126857 32618 net.cpp:129] Top shape: 128 32 25 25 (2560000)
I0914 12:09:34.126858 32618 net.cpp:137] Memory required for data: 51983360
I0914 12:09:34.126865 32618 layer_factory.hpp:77] Creating layer relu2
I0914 12:09:34.126871 32618 net.cpp:84] Creating Layer relu2
I0914 12:09:34.126873 32618 net.cpp:406] relu2 <- conv2
I0914 12:09:34.126878 32618 net.cpp:367] relu2 -> conv2 (in-place)
I0914 12:09:34.126991 32618 net.cpp:122] Setting up relu2
I0914 12:09:34.126999 32618 net.cpp:129] Top shape: 128 32 25 25 (2560000)
I0914 12:09:34.127002 32618 net.cpp:137] Memory required for data: 62223360
I0914 12:09:34.127003 32618 layer_factory.hpp:77] Creating layer conv3
I0914 12:09:34.127009 32618 net.cpp:84] Creating Layer conv3
I0914 12:09:34.127013 32618 net.cpp:406] conv3 <- conv2
I0914 12:09:34.127017 32618 net.cpp:380] conv3 -> conv3
I0914 12:09:34.128077 32618 net.cpp:122] Setting up conv3
I0914 12:09:34.128087 32618 net.cpp:129] Top shape: 128 1 21 21 (56448)
I0914 12:09:34.128089 32618 net.cpp:137] Memory required for data: 62449152
I0914 12:09:34.128096 32618 layer_factory.hpp:77] Creating layer loss
I0914 12:09:34.128101 32618 net.cpp:84] Creating Layer loss
I0914 12:09:34.128104 32618 net.cpp:406] loss <- conv3
I0914 12:09:34.128106 32618 net.cpp:406] loss <- label
I0914 12:09:34.128113 32618 net.cpp:380] loss -> loss
I0914 12:09:34.128144 32618 net.cpp:122] Setting up loss
…
I0914 12:09:34.128197 32618 net.cpp:255] Network initialization done.
I0914 12:09:34.128306 32618 solver.cpp:172] Creating test net (#0) specified by net file: examples/SR/SR_train_test.prototxt
I0914 12:09:34.128321 32618 net.cpp:294] The NetState phase (1) differed from the phase (0) specified by a rule in layer data
I0914 12:09:34.128377 32618 net.cpp:51] Initializing net from parameters: 
name: "SR"
state {
  phase: TEST
}
layer {
  name: "data"
  type: "HDF5Data"
  top: "data"
  top: "label"
  include {
    phase: TEST
  }
  hdf5_data_param {
    source: "examples/SR/test.txt"
    batch_size: 2
  }
}
layer {
  name: "conv1"
  type: "Convolution"
  bottom: "data"
  top: "conv1"
  param {
    lr_mult: 1
  }
  param {
    lr_mult: 0.1
  }
  convolution_param {
    num_output: 64
    pad: 0
    kernel_size: 9
    stride: 1
    weight_filler {
      type: "gaussian"
      std: 0.001
    }
    bias_filler {
      type: "constant"
      value: 0
    }
  }
}
layer {
  name: "relu1"
  type: "ReLU"
  bottom: "conv1"
  top: "conv1"
}
layer {
  name: "conv2"
  type: "Convolution"
  bottom: "conv1"
  top: "conv2"
  param {
    lr_mult: 1
  }
  param {
    lr_mult: 0.1
  }
  convolution_param {
    num_output: 32
    pad: 0
    kernel_size: 1
    stride: 1
    weight_filler {
      type: "gaussian"
      std: 0.001
    }
    bias_filler {
      type: "constant"
      value: 0
    }
  }
}
layer {
  name: "relu2"
  type: "ReLU"
  bottom: "conv2"
  top: "conv2"
}
layer {
  name: "conv3"
  type: "Convolution"
  bottom: "conv2"
  top: "conv3"
  param {
    lr_mult: 0.1
  }
  param {
    lr_mult: 0.1
  }
  convolution_param {
    num_output: 1
    pad: 0
    kernel_size: 5
    stride: 1
    weight_filler {
      type: "gaussian"
      std: 0.001
    }
    bias_filler {
      type: "constant"
      value: 0
    }
  }
}
layer {
  name: "loss"
  type: "EuclideanLoss"
  bottom: "conv3"
  bottom: "label"
  top: "loss"
}
I0914 12:09:34.128424 32618 layer_factory.hpp:77] Creating layer data
I0914 12:09:34.128432 32618 net.cpp:84] Creating Layer data
I0914 12:09:34.128435 32618 net.cpp:380] data -> data
I0914 12:09:34.128440 32618 net.cpp:380] data -> label
I0914 12:09:34.128444 32618 hdf5_data_layer.cpp:80] Loading list of HDF5 filenames from: examples/SR/test.txt
I0914 12:09:34.130929 32618 hdf5_data_layer.cpp:94] Number of HDF5 files: 1
I0914 12:09:34.138244 32618 net.cpp:122] Setting up data
I0914 12:09:34.138268 32618 net.cpp:129] Top shape: 2 1 33 33 (2178)
I0914 12:09:34.138273 32618 net.cpp:129] Top shape: 2 1 21 21 (882)
I0914 12:09:34.138274 32618 net.cpp:137] Memory required for data: 12240
I0914 12:09:34.138285 32618 layer_factory.hpp:77] Creating layer conv1
I0914 12:09:34.138304 32618 net.cpp:84] Creating Layer conv1
I0914 12:09:34.138309 32618 net.cpp:406] conv1 <- data
I0914 12:09:34.138314 32618 net.cpp:380] conv1 -> conv1
I0914 12:09:34.140012 32618 net.cpp:122] Setting up conv1
I0914 12:09:34.140023 32618 net.cpp:129] Top shape: 2 64 25 25 (80000)
I0914 12:09:34.140027 32618 net.cpp:137] Memory required for data: 332240
I0914 12:09:34.140035 32618 layer_factory.hpp:77] Creating layer relu1
I0914 12:09:34.140041 32618 net.cpp:84] Creating Layer relu1
I0914 12:09:34.140045 32618 net.cpp:406] relu1 <- conv1
I0914 12:09:34.140049 32618 net.cpp:367] relu1 -> conv1 (in-place)
I0914 12:09:34.140686 32618 net.cpp:122] Setting up relu1
I0914 12:09:34.140697 32618 net.cpp:129] Top shape: 2 64 25 25 (80000)
I0914 12:09:34.140699 32618 net.cpp:137] Memory required for data: 652240
I0914 12:09:34.140702 32618 layer_factory.hpp:77] Creating layer conv2
I0914 12:09:34.140708 32618 net.cpp:84] Creating Layer conv2
I0914 12:09:34.140712 32618 net.cpp:406] conv2 <- conv1
I0914 12:09:34.140717 32618 net.cpp:380] conv2 -> conv2
I0914 12:09:34.141257 32618 net.cpp:122] Setting up conv2
I0914 12:09:34.141266 32618 net.cpp:129] Top shape: 2 32 25 25 (40000)
I0914 12:09:34.141269 32618 net.cpp:137] Memory required for data: 812240
I0914 12:09:34.141275 32618 layer_factory.hpp:77] Creating layer relu2
I0914 12:09:34.141281 32618 net.cpp:84] Creating Layer relu2
I0914 12:09:34.141285 32618 net.cpp:406] relu2 <- conv2
I0914 12:09:34.141288 32618 net.cpp:367] relu2 -> conv2 (in-place)
I0914 12:09:34.141930 32618 net.cpp:122] Setting up relu2
I0914 12:09:34.141942 32618 net.cpp:129] Top shape: 2 32 25 25 (40000)
I0914 12:09:34.141944 32618 net.cpp:137] Memory required for data: 972240
I0914 12:09:34.141947 32618 layer_factory.hpp:77] Creating layer conv3
I0914 12:09:34.141953 32618 net.cpp:84] Creating Layer conv3
I0914 12:09:34.141957 32618 net.cpp:406] conv3 <- conv2
I0914 12:09:34.141963 32618 net.cpp:380] conv3 -> conv3
I0914 12:09:34.143023 32618 net.cpp:122] Setting up conv3
I0914 12:09:34.143035 32618 net.cpp:129] Top shape: 2 1 21 21 (882)
I0914 12:09:34.143038 32618 net.cpp:137] Memory required for data: 975768
I0914 12:09:34.143044 32618 layer_factory.hpp:77] Creating layer loss
I0914 12:09:34.143049 32618 net.cpp:84] Creating Layer loss
I0914 12:09:34.143052 32618 net.cpp:406] loss <- conv3
I0914 12:09:34.143055 32618 net.cpp:406] loss <- label
I0914 12:09:34.143060 32618 net.cpp:380] loss -> loss
I0914 12:09:34.143091 32618 net.cpp:122] Setting up loss
…
